…
/home/wsongan/.conda/envs/lmm-r1/lib/python3.12/site-packages/torch/utils/cpp_extension.py:2059: UserWarning: TORCH_CUDA_ARCH_LIST is not set, all archs for visible cards are included for compilation. 
If this is not desired, please set os.environ['TORCH_CUDA_ARCH_LIST'].
  warnings.warn(
Building extension module fused_adam...
Allowing ninja to set a default number of workers... (overridable by setting the environment variable MAX_JOBS=N)
Loading checkpoint shards: 100%|██████████| 2/2 [00:19<00:00,  9.44s/it]Loading checkpoint shards: 100%|██████████| 2/2 [00:19<00:00,  9.50s/it]
Actor(
  (model): Qwen2_5_VLForConditionalGeneration(
    (visual): Qwen2_5_VisionTransformerPretrainedModel(
      (patch_embed): Qwen2_5_VisionPatchEmbed(
        (proj): Conv3d(3, 1280, kernel_size=(2, 14, 14), stride=(2, 14, 14), bias=False)
      )
      (rotary_pos_emb): Qwen2_5_VisionRotaryEmbedding()
      (blocks): ModuleList(
        (0-31): 32 x Qwen2_5_VLVisionBlock(
          (norm1): Qwen2RMSNorm((0,), eps=1e-06)
          (norm2): Qwen2RMSNorm((0,), eps=1e-06)
          (attn): Qwen2_5_VLVisionFlashAttention2(
            (qkv): Linear(in_features=1280, out_features=3840, bias=True)
            (proj): Linear(in_features=1280, out_features=1280, bias=True)
          )
          (mlp): Qwen2_5_VLMLP(
            (gate_proj): Linear(in_features=1280, out_features=3420, bias=True)
            (up_proj): Linear(in_features=1280, out_features=3420, bias=True)
            (down_proj): Linear(in_features=3420, out_features=1280, bias=True)
            (act_fn): SiLU()
          )
        )
      )
      (merger): Qwen2_5_VLPatchMerger(
        (ln_q): Qwen2RMSNorm((0,), eps=1e-06)
        (mlp): Sequential(
          (0): Linear(in_features=5120, out_features=5120, bias=True)
          (1): GELU(approximate='none')
          (2): Linear(in_features=5120, out_features=2048, bias=True)
        )
      )
    )
    (model): Qwen2_5_VLModel(
      (embed_tokens): Embedding(151936, 2048)
      (layers): ModuleList(
        (0-35): 36 x Qwen2_5_VLDecoderLayer(
          (self_attn): Qwen2_5_VLFlashAttention2(
            (q_proj): Linear(in_features=2048, out_features=2048, bias=True)
            (k_proj): Linear(in_features=2048, out_features=256, bias=True)
            (v_proj): Linear(in_features=2048, out_features=256, bias=True)
            (o_proj): Linear(in_features=2048, out_features=2048, bias=False)
            (rotary_emb): Qwen2_5_VLRotaryEmbedding()
          )
          (mlp): Qwen2MLP(
            (gate_proj): Linear(in_features=2048, out_features=11008, bias=False)
            (up_proj): Linear(in_features=2048, out_features=11008, bias=False)
            (down_proj): Linear(in_features=11008, out_features=2048, bias=False)
            (act_fn): SiLU()
          )
          (input_layernorm): Qwen2RMSNorm((0,), eps=1e-06)
          (post_attention_layernorm): Qwen2RMSNorm((0,), eps=1e-06)
        )
      )
      (norm): Qwen2RMSNorm((0,), eps=1e-06)
      (rotary_emb): Qwen2_5_VLRotaryEmbedding()
    )
    (lm_head): Linear(in_features=2048, out_features=151936, bias=False)
  )
)
Using /home/wsongan/.cache/torch_extensions/py312_cu124 as PyTorch extensions root...
ninja: no work to do.
Loading extension module fused_adam...
Loading extension module fused_adam...
Time to load fused_adam op: 2.6055455207824707 seconds
Time to load fused_adam op: 3.0217251777648926 seconds
dataset: ./data/am_0.5M.jsonl
loaded ./data/am_0.5M.jsonl with data_files=./data/am_0.5M.jsonl
…
